checkpoint.pth (torch_old, 28447 bytes, 6 tensors)

fc1.weight f4 [64, 37]
000000 0c 0c ce 3d 6c 50 f2 3a 9d 8e fc bd 6d 15 af bd
       0.100608915 0.0018487102 -0.12331889 -0.085490085
000010 8b 92 9b be 21 f7 bb 3c 53 b3 f0 bd b1 ea 90 3e
       -0.3038524 0.022944989 -0.117529534 0.28304055
000020 4f cd c0 bc 7e b9 94 be 6d b6 96 bd ae 60 a2 bd
       -0.023535399 -0.2904777 -0.07359014 -0.079285964
000030 bf f2 ae bc cf 7e 33 be da f4 fa bd f4 b1 e5 3d
       -0.021355985 -0.17528842 -0.12253733 0.112155825
000040 cb 04 0b 3d a0 b3 83 3d 10 89 cf 3b 60 b8 10 be
       0.033940118 0.06430745 0.006333478 -0.14132833
000050 92 78 cb bd 2c 6c 38 3e 9a f0 98 3d 9a c9 8d 3e
       -0.09935106 0.18010014 0.07467766 0.27692872
000060 57 a6 95 3c 21 99 fe bc c3 29 65 3e 61 64 94 bd
       0.018267794 -0.031078877 0.22379212 -0.07245708
000070 b4 b1 5e be 1e 54 f3 3d 73 03 41 bd 8d 4b 74 3e
       -0.21747476 0.118812785 -0.04712243 0.23856945
000080 c4 fb 46 be 5e 36 88 bd 0e dd 77 be c7 85 39 3d
       -0.19431978 -0.06650995 -0.2420542 0.045293596
000090 93 8d 83 bc c2 2f 10 3e 83 e0 bd 3d a8 04 11 3d
       -0.016058719 0.14080718 0.09271338 0.03540483
0000a0 9b 0a b0 3d 67 86 e3 bb 69 4e e8 3d 9d c4 50 bc
       0.08595773 -0.0069435122 0.113430806 -0.012742189
0000b0 ac fb 8e be 1a 0f d1 bd 30 7d a6 3e db 7b a0 3e
       -0.27926385 -0.102079585 0.32517385 0.31344494
0000c0 1b 25 dd bd b7 ea 17 be 30 b7 36 3e 36 b1 2d 3c
       -0.10798093 -0.1483563 0.17843318 0.010601332
0000d0 0c ae 57 3e de 6a fa bd 3b 0a 06 3e d4 4b 75 be
       0.21062487 -0.122274145 0.1308984 -0.23954707
0000e0 49 81 a4 bd 82 45 83 3d fe 70 c5 bd 5e 31 25 be
       -0.08032472 0.06409742 -0.09640692 -0.16132113
0000f0 d0 04 8c be 91 bb 38 bd 42 3b 52 3e f8 06 d9 3c
       -0.27347422 -0.045100752 0.20530418 0.02649258
000100 d0 57 df bd e7 42 b4 be c8 19 ee be 71 11 08 3e
       -0.10905421 -0.35207292 -0.46504045 0.13287903
000110 b4 4b ba 3d 5b 9f 1e 3e a8 21 89 be 50 64 da bb
       0.090964705 0.15490477 -0.2678349 -0.00666479
000120 20 1d 47 be 07 15 80 3d 5e 5e 2c 3e 0b 38 f4 3d
       -0.19444704 0.06254011 0.16832873 0.11924752
000130 3d cf c4 3d c8 de 46 be 44 e0 e3 3d 23 ff 12 3e
       0.0960984 -0.19420922 0.1112676 0.1435514
000140 09 a6 7a be ce 87 66 3e f1 5e 36 bd 5c 96 9a be
       -0.244774 0.22512743 -0.044524137 -0.3019284
000150 54 f0 2e 3e 57 84 e5 3c b8 90 c2 be 29 46 64 be
       0.17083865 0.028017206 -0.38001037 -0.22292389
000160 0e ac 22 bf ef c7 7c bd 12 25 15 3d 3d e3 49 3d
       -0.63543785 -0.06171411 0.036412306 0.049288977
000170 65 e6 79 3e 4f 5d 36 3e af ae 02 be d4 d9 21 bf
       0.24404295 0.17809032 -0.12761949 -0.63223004
000180 b4 e5 76 3e c5 a6 a1 bd 8d 14 72 be 11 da 9e be
       0.24111062 -0.07893137 -0.23640652 -0.31025746
000190 3b a2 90 3e 63 d9 59 3d 68 cd b3 bc f8 63 4f be
       0.28248772 0.05318583 -0.021948531 -0.20252979
0001a0 7f 8b 27 be ed 3c f9 3c 95 1d 3a bc 70 3d a7 be
       -0.16361807 0.03042456 -0.011359592 -0.3266406
0001b0 c8 2f 30 ba c3 20 01 3e f3 91 8f bc 7b 0e a8 3d
       -0.0006720987 0.12610154 -0.017525649 0.08205887
0001c0 58 d0 4f bc d2 38 37 3e 0d cc 2e 3e c3 45 6d 3d
       -0.01268395 0.17892769 0.17070027 0.057927858
0001d0 24 de 8c bd 0b 0f c3 3c 48 28 0d 3e ff 30 10 3e
       -0.068783075 0.023810884 0.13784897 0.1408119
0001e0 f3 49 95 3e 8f c7 22 bc e3 1e 08 3e 41 04 48 bd
       0.2915798 -0.009935274 0.13293032 -0.04883218
0001f0 b9 79 6b be 35 a6 df be 0c 3b b5 3c 75 99 2d be
       -0.22995652 -0.43681493 0.022122882 -0.1695307
000200 40 ce e8 3d bc b3 f9 bd 82 55 0f be 3b 9d 50 3e
       0.11367464 -0.12192485 -0.13997462 0.20372479
000210 58 a5 e5 be 7a 67 e9 bd 16 46 f4 bd 7d ed 7b bf
       -0.4485271 -0.1139669 -0.1192743 -0.98409253
000220 5a bc 05 bd b3 52 25 bb 08 3b 2a 3e 6c e3 2e 3e
       -0.03265033 -0.0025226295 0.16624081 0.17078942
000230 b8 ae 4b 3e 2d c7 a5 3d 94 46 0e 3e 38 7e a1 3c
       0.19890869 0.080946304 0.13894111 0.019713506
000240 1d b3 47 3d a4 22 6b be 8a a2 eb 3d cf b3 46 3c
       0.0487548 -0.22962433 0.11505611 0.012127831
000250 11 8e d2 bc de 1f c6 bd 03 54 55 be bc 42 90 bd
       -0.025702508 -0.09674047 -0.20832829 -0.070439786
000260 e6 e8 5e 3e 0a 48 44 3d 4d 44 db 3e a2 d6 47 be
       0.21768531 0.047920264 0.42825547 -0.1951547
000270 46 97 81 3c 35 18 23 3f c8 5b 8f be d5 b0 8b 3d
       0.015819203 0.6370881 -0.2799971 0.068208374
000280 e3 d5 27 3e 6e 4c 7c 3c 99 9e 9d 3b 2c 5c 50 3d
       0.16390185 0.015399082 0.004810166 0.050869152
000290 b9 d8 b2 be 9f 81 61 3d e6 59 06 3e 4a f9 cd 3d
       -0.3493097 0.055055257 0.13120231 0.10057314
0002a0 39 77 41 be f1 92 98 3d ed 66 97 3d c1 8e 32 3e
       -0.18893136 0.07449902 0.073926784 0.17437269
0002b0 9c 0b a4 3e 58 bb 67 3e a1 24 bd bd 9e 7d 09 be
       0.32040107 0.2263006 -0.09235502 -0.13426825
0002c0 11 fd 39 3d 89 6b 9c bd 91 dc 32 3e d6 90 28 be
       0.04540736 -0.07637698 0.17466952 -0.164615
0002d0 35 dc af 3c a0 7f 57 3d 5e b0 a1 3e f7 6d 22 3d
       0.021467308 0.052611947 0.3157987 0.039655652
0002e0 74 20 39 3d 82 c8 72 3d 1d dd fb bb a8 5d 84 3d
       0.045196965 0.05927325 -0.007686271 0.06463176
0002f0 b2 b6 27 be 0f 89 05 3e 09 22 b6 3e a2 4d d4 bd
       -0.16378286 0.13040565 0.35572842 -0.1036637
000300 a9 8d 9b be 6f 8f c3 be 23 90 47 bf 4b af 57 bd
       -0.30381516 -0.3819537 -0.7795431 -0.052657407
000310 85 b6 ad bd 9c 78 8b 3d c7 32 13 bd 46 8d 1f ba
       -0.084820785 0.06810114 -0.035937097 -0.000608642
000320 de 94 bd 3c 7a 0f 43 3e 3f 01 bd bd 2d 4d 1c be
       0.023142274 0.19048873 -0.09228753 -0.15263815
000330 4a 5c 25 be 60 73 04 3e a8 50 60 3d 64 ed 93 3c
       -0.16148487 0.12934637 0.05476442 0.018057533
000340 17 b2 ec 3d e1 87 0b 3e c0 67 8d bb 2f 72 17 3e
       0.115574054 0.13626052 -0.0043153465 0.14789651
000350 fc 8d b4 3c 33 86 ee bd 9d dc 86 be 96 58 f0 bc
       0.02204036 -0.1164669 -0.2634019 -0.029339116
000360 8f f5 b7 39 0b 4d 36 bd 69 ce 42 3e c4 96 c0 3c
       0.00035087435 -0.044507068 0.19024052 0.02350939
000370 59 30 b2 bc 89 12 da 3d 8d 05 57 3e e3 e9 7a bc
       -0.02175157 0.106480666 0.20998211 -0.015314552
000380 c7 71 37 be fe 0a 3c 3d b0 cc 68 be 8b ab a8 be
       -0.17914496 0.04590892 -0.22734332 -0.32943377
000390 bd c4 fb bd 0a b9 fe 3c 25 7c 4c 3e 01 65 91 bd
       -0.12293384 0.031094093 0.19969232 -0.07099343
0003a0 d1 33 e3 3d e3 35 e1 3d 23 52 02 3e 82 f8 ec bd
       0.110938676 0.10996606 0.12726645 -0.115708366
0003b0 4a 3b 81 3d 10 2f 29 b8 39 d4 4c be 87 b2 03 3d
       0.063101366 -4.033657e-05 -0.20002832 0.03215268
0003c0 ff 91 76 3d f6 ad 93 be ed ef d3 bd f5 8b f4 3d
       0.060197826 -0.2884366 -0.103484966 0.11940757
0003d0 0e 93 43 3e 21 b8 a5 be 19 02 c7 3e 2d 1c a3 3d
       0.19099066 -0.32367042 0.38868788 0.079643585
0003e0 53 1b 81 bd 31 9d 88 bd a2 47 22 be 08 18 e8 bc
       -0.0630404 -0.06670607 -0.15847638 -0.028331771
0003f0 3e 9f 70 3e cc 03 4f be cc cc 62 be 4d cc 14 3e
       0.23498246 -0.20216292 -0.22148436 0.1453106

fc1.bias f4 [64]
000000 89 77 2d 3e a7 32 53 bc 60 0c e3 bd 03 52 36 bd
       0.1694013 -0.012890494 -0.11086345 -0.044511806
000010 f1 06 24 3e 25 45 95 3c 02 51 7b bd e6 fd fa 3d
       0.16018273 0.018221447 -0.061356552 0.122554585
000020 2d 99 2e 3c a2 25 c5 bd 3d 8f 26 3e cc 98 4b 3e
       0.010656637 -0.096263185 0.16265579 0.19882506
000030 0d 76 ff 3d 80 5d fb 3d 09 82 28 bd e8 c1 37 bd
       0.12473688 0.12273693 -0.041139636 -0.044862658
000040 b3 09 3b 3d 1a 92 a3 bc 9f 24 25 bd 79 7e 3d be
       0.045663547 -0.019967128 -0.040318128 -0.18505277
000050 0b ba dc bd da 8f 2a 3c 93 c7 7a 3d bc 18 bd bd
       -0.107776724 0.010410273 0.061225485 -0.09233233
000060 68 3e b6 bd bb 9e 22 3e 48 f1 6e bd e5 46 2c be
       -0.08898622 0.15880863 -0.058335572 -0.16823919
000070 78 4f bf 3d 7f de 45 3e 90 74 2e bd 15 59 34 be
       0.09341329 0.19323157 -0.04259163 -0.17612107
000080 12 e9 12 3e 9b df 26 bc a5 6a 0b be c9 9a 37 3c
       0.14346722 -0.010185148 -0.136149 0.011206337
000090 c7 ac 0b 3d 58 b1 8a bb a4 fb b6 bd 43 9f 91 bd
       0.03410032 -0.004232567 -0.089347154 -0.07110455
0000a0 40 fe 42 bd 90 3c c9 3d 33 68 95 bd d6 2f 3b 3e
       -0.047605753 0.098260045 -0.07295265 0.18279967
0000b0 8e fb a8 3c f8 c8 3e be 47 ec 33 bd fa 0a 99 bd
       0.020627763 -0.18631351 -0.043926504 -0.07472797
0000c0 61 6c e2 bd 21 64 74 bc 94 47 63 be 8e 97 2d 3c
       -0.11055828 -0.014916451 -0.22195274 0.0105952155
0000d0 51 c1 3e bd 4a 05 07 be e5 aa 14 be 3c 32 fa bc
       -0.04657108 -0.13185611 -0.14518316 -0.030541532
0000e0 89 3f 0a 3e ea 18 b9 bd 18 31 ec bd e3 b8 db bd
       0.13500799 -0.09037955 -0.115328014 -0.10728624
0000f0 9d 27 8b bb a4 e7 4a 3d 68 36 81 bc ea d0 80 3d
       -0.0042466656 0.049537316 -0.015773013 0.06289847

fc2.weight f4 [64, 64]
000000 00 96 7f bc ef 04 c3 3d 3f f1 e2 3d 7f a7 92 3e
       -0.015599728 0.095224254 0.1108117 0.28643414
000010 0d 41 db 3d de 45 f3 bd 78 3b 86 3e c8 14 92 be
       0.10705767 -0.118785605 0.26217246 -0.2853148
000020 5a 1f 63 bc b5 d9 88 3e 47 9d 30 3d 6a d5 af 3d
       -0.013862455 0.26728597 0.04311874 0.085856274
000030 e2 a2 03 bf 6f 72 a4 3c 45 16 31 be 45 87 27 be
       -0.51420414 0.020074097 -0.17293651 -0.16360195
000040 02 c5 de be a3 ff cd be bf 5b 90 be 92 0d 44 3d
       -0.4350968 -0.40234098 -0.28194997 0.047864504
000050 c3 68 77 be bb 49 b7 3d 0a 8d 02 3b b4 49 39 bf
       -0.24161057 0.0894961 0.0019920492 -0.7237809
000060 45 55 83 3d 9d 54 c5 be 1d 2e 2c 3e df 12 1d be
       0.06412748 -0.38541117 0.16814466 -0.1533923
000070 f2 24 97 bc 80 41 9d bd b5 b0 11 3e 99 c4 e4 bd
       -0.018450234 -0.07678509 0.14227565 -0.111703105
000080 f1 bc 7a be 1c 8a 88 3e 62 c1 62 be 7d 06 3f 3d
       -0.24486138 0.2666787 -0.22144082 0.046637047
000090 c5 1c f7 be a2 49 9a 3d 3f 2c 95 3c 5e cf be bd
       -0.48264137 0.075335756 0.018209575 -0.09316896
0000a0 89 22 9d be 64 6c 92 be fa c1 2e 3d b5 c4 55 bd
       -0.3069041 -0.2859832 0.04266546 -0.052189548
0000b0 7e 19 5b be bc 85 c1 be 13 bf b0 be b0 89 c4 bd
       -0.21396443 -0.37797344 -0.34520778 -0.09596574
0000c0 32 96 17 bf ca cc 49 be 31 0d f9 bd 1d 3e 45 3d
       -0.59213555 -0.19707027 -0.12160719 0.04815494
0000d0 af 01 1f bf 04 cf 63 3d 32 bf 21 bf 06 09 3c bc
       -0.62111944 0.055617347 -0.63182366 -0.011476761
0000e0 b8 75 0d bf 12 54 e3 3d cf be 1a be 55 99 e6 3d
       -0.5525775 0.111000195 -0.1511185 0.112597145
0000f0 df 4e 65 bd aa 47 ef 3d 31 fb 54 be 64 8d e1 bd
       -0.05598342 0.11683591 -0.20798947 -0.11013296
000100 c5 c0 09 3e b4 6f 22 3e 28 f2 cf 3d fa 65 87 3d
       0.13452442 0.15862924 0.101536095 0.06611247
000110 41 2a 5f 3d b8 6b 75 3d 21 cb 94 be 9e ef 53 3e
       0.054483656 0.05991718 -0.29061225 0.20696875
000120 a3 3e 22 bd 07 c4 88 3d 57 88 70 3d 97 ca 18 3e
       -0.039610516 0.06678014 0.058723774 0.14921032
000130 df 94 13 be d5 0c 01 3e 02 92 47 be c1 3a 3b be
       -0.14412259 0.12602551 -0.19489291 -0.18284132
000140 62 1c 74 3c 0f 4e a6 bc 2f 6c bb b9 0d 28 b4 bd
       0.014899345 -0.020300893 -0.00035748022 -0.087967016
000150 3f 40 0d bd 1f 5c 58 be 20 23 98 3d 2f 71 5e bd
       -0.034485098 -0.21128891 0.074285746 -0.05430716
000160 d1 8c 68 bd 5f 78 65 3b 96 ab 26 be f6 88 de be
       -0.056774918 0.0035014374 -0.16276392 -0.43463868
000170 eb 1b 78 3c a3 6e 34 bd 72 12 e1 3d 62 62 26 3e
       0.015143375 -0.044050824 0.10989846 0.16248468
000180 28 b7 ca 3b f0 88 50 3e fe e9 90 bc 9a 5f 06 be
       0.0061863847 0.20364738 -0.017689701 -0.13122407
000190 72 b3 81 3d 09 22 47 3e 4d c8 7a 3e bb aa bd bd
       0.063330546 0.19446577 0.24490471 -0.0926108
0001a0 1f 58 bb 3c ff 43 ce 3d 52 02 1a 3e dc 0c 30 3d
       0.022869168 0.10071563 0.15039948 0.042981014
0001b0 d1 4a 23 3b ff ba 1d bd 04 62 e6 bc 43 ad 73 3e
       0.002491642 -0.03850841 -0.02812291 0.23796563
0001c0 b2 d8 b5 bd 74 ca 6e bd cd d3 a0 bd da 64 07 3e
       -0.08879222 -0.058298543 -0.07852898 0.13222066
0001d0 ea 25 a7 3c 8d c8 4d 3e 51 6d 69 bd 1f 43 1a 3e
       0.020403821 0.20096035 -0.056989018 0.15064667
0001e0 dd 66 89 bd b2 e1 7c be 66 2d 46 3d 75 ef fd bd
       -0.06709073 -0.24695471 0.04838314 -0.123991884
0001f0 91 91 71 be 81 f7 80 3c f6 1b c5 bd e9 2e 88 3d
       -0.23590685 0.015743019 -0.09624474 0.066495724
000200 c4 b0 7e be 5d b7 f4 bd ce 96 62 3e b3 c4 ca 3d
       -0.24872118 -0.11949036 0.2212784 0.09900799
000210 2c 15 ab bd c2 e5 25 3d 18 6b 0a be c4 1f 15 3d
       -0.083536476 0.040502317 -0.13517416 0.036407247
000220 c3 0e e7 3d 8a 20 8c bd 17 a0 6d 3d 26 85 ea 3d
       0.112821124 -0.06842144 0.058014 0.11451177
000230 8b c6 90 3d 36 03 4a bd 9b 19 0c be 65 da 24 3d
       0.07069119 -0.04931947 -0.13681643 0.04024734
000240 a6 be 2c bd be 6f c5 3d f9 2d 0f 3e c3 b6 4c bc
       -0.042174004 0.09640454 0.13982381 -0.012494746
000250 3d 4f 1e bd 20 0f a5 3d 14 ad 07 3d ee 30 96 bd
       -0.038649786 0.080595255 0.033124045 -0.07333551
000260 0d 67 4a bd 97 c2 1f 3e 7d b2 54 3e bc 68 0c 3d
       -0.049414683 0.15601574 0.20771213 0.03427957
000270 6e 2c 4c bd 67 c4 38 3e f2 20 78 3d be 6a 0e bc
       -0.04984706 0.18043672 0.060578294 -0.0086924415
000280 cf 58 24 be d7 ae 13 3c cf bb 95 bd c6 c3 6f 3e
       -0.16049503 0.009013853 -0.07311212 0.23414525
000290 98 20 dd 3d 23 79 56 3d a9 91 26 3e 48 d9 b2 3d
       0.107972324 0.05236162 0.16266502 0.08732849
0002a0 82 1f a0 3e 57 02 5c 3e 73 12 6b be ca a7 11 bd
       0.3127404 0.21485268 -0.22956257 -0.035560407
0002b0 70 d8 13 be 73 eb 91 3c 36 54 51 bc 49 0b 0b be
       -0.14438033 0.017812466 -0.012776425 -0.13578524
0002c0 4e 0c 1c 3d fc 63 99 be 9b 17 60 be 1a 1c 44 3d
       0.038097672 -0.29959095 -0.21884005 0.047878362
0002d0 e1 fa f2 bd 39 cf a7 3d 4c 70 4a be cb 81 d4 bd
       -0.118642576 0.081938215 -0.197694 -0.103763185
0002e0 19 ef ae bd 02 33 61 be 6b 02 25 3e 23 a2 f1 3d
       -0.08541698 -0.21992114 0.16114204 0.11798503
0002f0 14 be 49 bc d3 df 8a bd 50 ef 87 3d a4 73 4f be
       -0.012313385 -0.06780972 0.06637442 -0.20258957
000300 b9 f3 79 be fa 4d 1a bd 45 ad db bc af 96 04 3e
       -0.24409379 -0.03767202 -0.02681602 0.12948106
000310 22 50 c2 bd 4c eb ba ba 27 f4 60 bd 3e 03 bd bd
       -0.0948794 -0.0014260798 -0.05492034 -0.09229134
000320 11 2d 93 bd f6 ec 0d bc 7e c1 2f be 83 45 32 3e
       -0.0718633 -0.008662453 -0.17163655 0.17409329
000330 b3 fc 8a be 51 e5 3d be e6 47 68 bd 32 1b b0 be
       -0.2714592 -0.18544509 -0.056709193 -0.34395748
000340 3f cd 84 bd 63 c1 9f be c2 3e f1 3d 86 ca 6e 3c
       -0.0648446 -0.3120223 0.11779548 0.014574653
000350 d6 a1 4d be 33 96 9e 3e d9 80 8f 3d 35 87 35 3d
       -0.20081267 0.30973968 0.070069976 0.044318397
000360 e7 fa de 3d b9 c4 86 bd 48 58 f9 3d d3 46 7d 3d
       0.108876996 -0.065804906 0.121750414 0.06183512
000370 5b 32 ce 3d f1 a4 72 be 54 4f 07 bd 1a 36 c4 bd
       0.10068198 -0.23695733 -0.033034638 -0.095806316
000380 57 9c 1e be db d7 c8 bc 4e 46 27 be 74 ab ce bd
       -0.15489326 -0.02451699 -0.16335413 -0.10091296
000390 7c ed 8f be 5f ca 3c 3e 19 82 d4 3c b7 ae 9b bd
       -0.28110874 0.18436573 0.025940942 -0.076016836
0003a0 cd 99 9a bd 3f 87 c0 bd 2a 82 bb bd b4 4c 0c 3e
       -0.075488664 -0.09400796 -0.09155686 0.13701135
0003b0 26 cb 17 be 63 32 ff bd dd 72 92 be 06 c6 30 bd
       -0.14823589 -0.124607824 -0.2860326 -0.0431576
0003c0 99 2b 47 be 81 a0 43 bd ba 85 bb be ef 29 23 be
       -0.19450225 -0.04776049 -0.36625463 -0.15933965
0003d0 7c e0 9b bd d0 29 af 3e e3 a2 c9 be 3e 3b b0 bd
       -0.07611176 0.34211588 -0.39382085 -0.086050496
0003e0 e2 bd 6c be 7d 3b db bd fe 2e 81 be cb 11 1b 3e
       -0.2311931 -0.10704706 -0.25231165 0.15143506
0003f0 3c 96 83 bd d1 9a 4b 3e 94 b3 c9 bd ca ef bd bd
       -0.06425139 0.19883277 -0.09848705 -0.09274252

fc2.bias f4 [64]
000000 ce 78 16 3d 37 94 e2 3b fc bd 79 3d e0 3e 38 3d
       0.036736302 0.0069146412 0.0609722 0.044981837
000010 4a cc 11 3e d5 3e 08 be 38 1c 1a be 10 db 98 3d
       0.14238086 -0.13305219 -0.15049827 0.07463658
000020 3e c3 8c 3e 5d 23 67 3e 7c 27 a1 3d 29 28 2d 3e
       0.27492708 0.22572084 0.07868859 0.16909851
000030 c5 c4 9b 3d 36 c9 69 bd dd cd af bd 2f 6c 6c 3c
       0.0760589 -0.057076655 -0.08584187 0.01443009
000040 09 98 b4 3d bd 63 1b 3d 09 ad a7 bc db f2 ad 3e
       0.08818061 0.037936915 -0.020468252 0.33974347
000050 92 c0 d6 3d fc 44 91 3e 81 ba 22 be 39 d9 61 bd
       0.104859486 0.28372943 -0.15891458 -0.0551388
000060 27 b3 ab bd 04 9e 05 be be 4b 29 3e 88 dc 18 be
       -0.0838378 -0.1304856 0.165328 -0.14927876
000070 81 fb b3 bc 12 40 60 3e 8e c4 ef 3d 8c f0 f5 bd
       -0.021970512 0.21899441 0.11707412 -0.12008771
000080 9c df 8d bc 4e 48 1f 3e fe ed 47 3e bf ae 0a be
       -0.01731854 0.15554926 0.1952438 -0.13543223
000090 04 bb 69 be 80 99 20 be 82 ee e8 3d ff b3 03 be
       -0.22825247 -0.15683556 0.11373617 -0.12861632
0000a0 1c a3 db bd 6f 58 df 3e 6b c4 0b 3e 4e 67 9e bd
       -0.1072447 0.43622157 0.13649146 -0.077345476
0000b0 3d cf 42 3d b7 36 2e be 44 2b 3d 3a 11 ff 21 be
       0.04756092 -0.1701306 0.0007216225 -0.15819956
0000c0 03 a2 ae 3d 6f 2a ba bd e0 a3 0d be d7 37 11 3e
       0.08526995 -0.09090125 -0.13832045 0.14181457
0000d0 6d 7e 2f be c1 37 d8 bc b4 10 7c 3d 68 77 17 be
       -0.17138071 -0.026393773 0.061539367 -0.14791644
0000e0 93 25 02 bd b9 49 1a be 01 5d df 3c be 51 1d bd
       -0.031774115 -0.15067185 0.027266027 -0.038408034
0000f0 8d f4 71 bd 86 30 dc 3d 61 73 a6 3d 12 5c d9 bd
       -0.059071112 0.107514426 0.081274755 -0.10613264

fc3.weight f4 [4, 64]
000000 05 17 ad be 30 e2 87 3d c6 5e 85 3d 49 e8 a9 be
       -0.33806625 0.06634939 0.06512217 -0.33185032
000010 d5 30 46 3e c7 74 45 be 94 7e fd bd 39 24 16 3c
       0.19354565 -0.19282828 -0.123776585 0.00916391
000020 3b c0 e2 3d 4c df af bd df 5a 41 3d de 47 d0 3d
       0.11071821 -0.085875124 0.047205802 0.101699576
000030 7d c0 04 be 41 7c bc bc 4e 43 ca bc cf 10 d3 3d
       -0.12964053 -0.023008468 -0.024690297 0.1030594
000040 27 1d c1 be 49 bd 40 3c 57 6e e5 3d 25 fe 31 3e
       -0.37717554 0.011763879 0.11202686 0.17382105
000050 c5 2e 7c 3d c9 9d c1 3e 76 93 ba 3b 86 8c 8b bd
       0.06156804 0.37815693 0.0056938482 -0.06813912
000060 4e f8 d7 3d 7c fe 28 be 0f ec f5 3b cc 4b 0e be
       0.10545407 -0.16503328 0.007504947 -0.13896102
000070 21 26 6f 3e 51 e8 09 3d 4b ec ed be dd 2c 1e 3e
       0.23354389 0.03366882 -0.4646934 0.15446801
000080 8c 04 1d 3e 17 91 ee 3d ed 6a 9f 3d ff 39 dc 3e
       0.15333766 0.116487674 0.07784066 0.43012998
000090 ee d8 9c bd ea 85 3b bd 54 39 ba 3d 4d d7 de bc
       -0.076585636 -0.045782007 0.09092966 -0.027202273
0000a0 6a 9e a4 3e 29 6e cc 3d 60 26 ae 3d 74 36 fa 3a
       0.3215211 0.09981949 0.08503413 0.0019089715
0000b0 8f bd ca 3e 31 af c7 b8 6e 6c 0b 3e 87 d0 cc 3d
       0.39597747 -9.5216914e-05 0.13615581 0.10000711
0000c0 5a 76 35 3e b8 e9 d1 3d 7e 63 32 3e 17 8e 98 3e
       0.17720929 0.102496564 0.17420766 0.29795906
0000d0 ae 12 85 3e 11 ad ac be fe 12 1f 3d ab 0b 98 3c
       0.25990814 -0.3372579 0.03883647 0.018560251
0000e0 68 4b bb be ab cb 23 3e 09 45 a0 3e 7d 73 93 3c
       -0.36580968 0.15995662 0.3130267 0.017999405
0000f0 e6 22 06 bf f7 47 16 3e 88 4a 0f 3e 03 2c 7f 3e
       -0.52397 0.1467589 0.13993275 0.24919133
000100 e2 e6 16 3f 59 ea c2 bd 1b 94 04 3e 7d e6 11 3e
       0.5894605 -0.095173545 0.12947123 0.1424808
000110 b4 26 29 3e 6a 8e 9c 3e ea 89 93 be a5 b9 65 bc
       0.1651867 0.30577403 -0.28816158 -0.014021312
000120 10 70 90 3d 76 88 bb 3d 3c c7 c0 3d 38 20 ab 3e
       0.07052624 0.09156887 0.09413001 0.33423018
000130 75 a1 e0 be 80 42 65 3d 60 c3 01 bc 9a 12 79 3e
       -0.43873182 0.055971622 -0.007920116 0.24323502
000140 74 16 c2 3d 19 42 88 3e 07 25 e0 be ee c7 da 3d
       0.09476939 0.26612929 -0.4377825 0.10682665
000150 fd fd c1 3d 07 74 5b 3e 5a d7 13 be 10 8b dd 3a
       0.094722725 0.2143098 -0.14437619 0.0016902406
000160 bc 29 4f 3c 06 a5 db bd 6c e2 3e 3e 6f 64 1b 3e
       0.012644228 -0.10724835 0.1864106 0.15175031
000170 0f 8a 7e bd 92 45 dc 3d 5e 2b d7 3d 12 b4 07 3e
       -0.06214338 0.10755457 0.105063185 0.13252285
000180 06 25 8d 3e 4e a5 fa bc 13 1a 01 3e ea 8e 60 3d
       0.2756731 -0.030596402 0.12607603 0.054823793
000190 72 90 b8 3d f2 45 26 be 76 94 e7 3d 1f 47 1f 3e
       0.09011926 -0.1623762 0.113076136 0.15554474
0001a0 19 fe 05 3f 34 85 41 3e 38 e9 64 3d 9d d1 f1 3d
       0.5234085 0.18898469 0.055886477 0.11807559
0001b0 6b 7f 08 be e4 3c f1 3d 9a c8 9d 3c d6 1a af bd
       -0.13329856 0.11779192 0.019260693 -0.085500404
0001c0 7b ac df 3e 59 26 19 3d e9 76 ac 3d ff 1c 6d 3e
       0.4368628 0.037390087 0.08421118 0.23155592
0001d0 b5 71 76 3e 1f 93 1f 3d 79 c9 14 3e b5 0b 6d 3e
       0.24066813 0.038958665 0.1452998 0.23148997
0001e0 50 32 7c be b5 f3 f8 3c c3 b7 d0 3e b8 df 6b be
       -0.24628568 0.030389646 0.407652 -0.2303456
0001f0 4a 7e 86 bd 90 f8 5e 3c 8c 0b 7a bc 0e 5b bb bd
       -0.065670565 0.013609067 -0.015261542 -0.09148227
000200 0e 7f c0 bd b5 38 90 bd 4a e5 fe 3d 59 93 5c be
       -0.09399234 -0.07042066 0.12446077 -0.21540584
000210 9f eb 3e 3e f0 e4 b2 bd ac 5d ec 3d 39 e4 bb 3d
       0.1864457 -0.087350726 0.11541304 0.091743894
000220 e1 2f 15 3e 87 6f fa 3d 3f ef 4c be 85 c3 81 3e
       0.14569046 0.122283034 -0.2001314 0.25344482
000230 b4 74 93 be 0f fe c7 be 66 5c 98 bd ea 70 63 3e
       -0.28799975 -0.3906102 -0.074394986 0.22211042
000240 d1 7d 2a 3e 65 55 15 3e ad eb 24 be c9 a3 15 3e
       0.16649558 0.14583357 -0.16105528 0.1461326
000250 9d 0f c3 3c b9 6e 4a 3e 37 48 60 be 61 a9 78 bd
       0.023811156 0.197688 -0.21902548 -0.060708407
000260 b6 e6 9e 3e c2 6a 5f bd d7 6b 31 3c 67 df 18 3d
       0.31035393 -0.05454517 0.010828934 0.037322428
000270 77 40 86 3e b5 c9 4d 3e 29 b1 a7 3d 37 bd a8 be
       0.26221058 0.20096476 0.081880875 -0.3295686
000280 cb 07 3e be ca 87 a3 bd 9d 41 f5 3d 2e 23 99 3e
       -0.1855766 -0.07984884 0.11975405 0.29909652
000290 88 e3 5a be cc b5 09 be 08 0a 80 3d c8 4a a3 3c
       -0.21375859 -0.13448256 0.06251913 0.01993312
0002a0 df 25 3c 3e d7 a7 4d 3e ff bf 1d 3e 19 79 80 3d
       0.18373822 0.20083557 0.15405272 0.062730975
0002b0 ca 5b 41 bd 06 26 0a be dc 3b 1b 3c f6 f4 a0 3d
       -0.047206677 -0.13491067 0.009474721 0.078592226
0002c0 d9 47 e1 3d cf d1 90 3d a1 9f 91 be e9 a2 f4 3e
       0.11000032 0.07071268 -0.284421 0.4778054
0002d0 80 59 c3 bd 87 74 d4 3d 2a 18 90 3e e7 5b 4b 3e
       -0.09538555 0.10373788 0.28143436 0.19859277
0002e0 b2 75 50 be a5 d2 6a 3e 6b 9d 8d 3d 8d 32 99 be
       -0.20357397 0.22931917 0.06914791 -0.2992138
0002f0 47 83 33 be 36 64 dd 3d 78 e6 d2 3d d3 8d c1 3e
       -0.17530547 0.10810129 0.10297865 0.37803516
000300 75 1d 8e bd bf a8 67 3e ae cf 29 3e 1d 8b fe bd
       -0.06939212 0.22622965 0.1658313 -0.124288775
000310 ad a9 8c 3d 80 b8 96 ba 9e 04 7a be e7 f7 69 3e
       0.068683006 -0.0011499077 -0.24415824 0.22848473
000320 b6 26 12 3e 90 73 47 3e b8 1a 1a 3e 25 5f 80 3d
       0.1427258 0.19477677 0.15049255 0.062681474
000330 91 75 76 3d 57 c1 7b 3e 00 be 72 3d d8 a9 3c 3e
       0.060170714 0.24585472 0.05926323 0.18424165
000340 a4 99 97 3e 07 79 69 3e 09 e6 3d 3e 4f 23 5b 3e
       0.29609406 0.22800075 0.18544783 0.21400188
000350 ff 53 67 bc d1 29 80 3e eb 13 b7 bc b5 3a 0f 3e
       -0.014119147 0.25031903 -0.022348365 0.13987239
000360 11 41 cd 3d 42 fa cf be a4 a8 5c 3e 57 79 14 bd
       0.10022176 -0.4062062 0.21548706 -0.03624853
000370 9a 3c 97 3e d0 53 21 be f4 9e 6f be 28 2d 9f 3d
       0.29538423 -0.15754628 -0.2340048 0.07772285
000380 95 91 1c be 30 2f 96 3d 49 06 c7 bd 0b 0a 2a 3d
       -0.1528991 0.07333219 -0.09717996 0.041513484
000390 1f 2f 35 be d2 34 33 be d1 79 8b 3e f8 61 c4 3c
       -0.17693757 -0.17500618 0.27241376 0.023972496
0003a0 7a fb 8c bd 92 23 2b 3e b1 39 8b 3e 8b 6d 81 be
       -0.06883903 0.16712788 0.27192453 -0.25278887
0003b0 f5 a9 dd 3e 07 a4 81 be f0 44 65 3e 80 e6 f1 bb
       0.4329373 -0.25320455 0.22389579 -0.007382214
0003c0 11 d9 20 3d 34 c0 5a be 0e 5a e0 3d 5f 51 82 3d
       0.03926951 -0.21362382 0.109546766 0.063631766
0003d0 d0 67 0e bc f0 15 0a 3e 90 38 2b 3e 34 19 56 bd
       -0.008691743 0.13484931 0.16720796 -0.05227013
0003e0 b1 7e 63 3d ae 22 4b be 52 5c 9e bc bb 8e 3e bd
       0.055540744 -0.19837448 -0.019331131 -0.046522837
0003f0 a6 d9 42 be 93 d9 7f 3e 59 4e 68 bd 41 1b 4d be
       -0.19028339 0.24985342 -0.056715343 -0.20029928

fc3.bias f4 [4]
000000 a4 f2 ab 3e ba 54 91 3e 31 d3 20 3e 39 4d 1d 3e
       0.33583558 0.28384954 0.15705563 0.1536149
