checkpoint.pth (torch_old, 28447 bytes, 6 tensors)

fc1.weight f4 [64, 37]
0	0xbcc24a65	-0.023717115
1	0x3d6df34c	0.058093354
2	0xbdc73e13	-0.097286366
3	0xbde497af	-0.11161744
4	0xbe31122d	-0.1729209
5	0x3b7b90c0	0.0038385838
6	0xbdaad1a3	-0.08340766
7	0x3e4ecb85	0.20194824
8	0xbcb824aa	-0.02247842
9	0xbef4fbf4	-0.47848475
10	0xbe8818ce	-0.26581424
11	0x3d0e543e	0.03474831
12	0x3c7a713b	0.015285785
13	0xbe50840c	-0.20362872
14	0xbdf7d381	-0.12100888
15	0x3db943df	0.090461485
16	0x3d679a07	0.056543376
17	0x3bbc3f3a	0.005744842
18	0xbcdbf54c	-0.026850365
19	0xbdf106d9	-0.11768884
20	0xbe187aba	-0.14890566
21	0x3e2b1f5a	0.16711178
22	0x3d5db04c	0.054123208
23	0x3ea99642	0.3312245
24	0xbe213392	-0.15742329
25	0xbdd2b83b	-0.102890454
26	0x3e5c474a	0.2151157
27	0xbd9a7099	-0.075410075
28	0xbe29a7d6	-0.1656793
29	0xbcf2d451	-0.029642256
30	0xbe31c203	-0.17359166
31	0x3e71e5ca	0.23622814
32	0xbde4b645	-0.11167578
33	0xbd6d1afd	-0.057887066
34	0xbe737a63	-0.23777156
35	0x3cf0e278	0.029404864
36	0xbcac8e6b	-0.021064004
37	0x3e4592c7	0.19294272
38	0x3d99ca33	0.075092696
39	0x3adedd7e	0.0017003266
40	0x3dd5b653	0.10435166
41	0x3d1e48bb	0.03864358
42	0x3da5eed2	0.08102192
43	0xbd1102ff	-0.035403248
44	0xbe48ab3a	-0.19596568
45	0xbddc977b	-0.1077108
46	0x3e9b365e	0.30314916
47	0x3e860f84	0.26183712
48	0xbe11dca1	-0.1424432
49	0xbda45270	-0.08023536
50	0x3e414acf	0.18876193
51	0xbcb98301	-0.022645475
52	0x3e84014b	0.25782236
53	0xbe032405	-0.12806709
54	0x3dadd255	0.08487383
55	0xbe8513fe	-0.25991815
56	0xbddad4b6	-0.10685103
57	0x3cf2dfe4	0.029647775
58	0xbdaff299	-0.08591194
59	0xbe3bbfa4	-0.18334824
60	0xbe329322	-0.17438939
61	0xbc574416	-0.013138792
62	0x3e6447e0	0.22293043
63	0x3c7cb8cd	0.015424919
64	0xbe3b2c8e	-0.18278715
65	0xbe74aa3e	-0.23893067
66	0xbf233451	-0.63751704
67	0x3e1fc014	0.15600616
68	0x3d87411a	0.06604214
69	0x3e2fb5d1	0.17159201
70	0xbe90239e	-0.28152174
71	0xbda7d190	-0.08194268
72	0xbe769574	-0.2408045
73	0x3cf554e9	0.029947715
74	0x3e29a5ab	0.16567104
75	0x3e1af9bc	0.15134329
76	0x3de60092	0.112305775
77	0xbe6479eb	-0.22312133
78	0x3e300bf9	0.17192067
79	0xbb64959d	-0.0034879216
80	0xbe42b754	-0.19015247
81	0x3e84cc21	0.25936988
82	0xbd7f967f	-0.062399384
83	0xbe549c28	-0.20762694
84	0x3e6ed360	0.2332282
85	0xbd07d9c6	-0.03316667
86	0xbef12fac	-0.47106683
87	0xbe98d868	-0.29852605
88	0xbf59fc33	-0.8515045
89	0xbe1b6a7c	-0.1517734
90	0x3dcf0368	0.101080716
91	0x3d3bfba3	0.045894276
92	0x3e8e1616	0.27751225
93	0x3e4fdad9	0.20298328
94	0xbde6b87d	-0.11265657
95	0xbec97db4	-0.39353716
96	0x3e0f390d	0.13986607
97	0xbd377aee	-0.04479497
98	0xbc949657	-0.018138094
99	0xbea697ab	-0.32537588
100	0x3e6ef943	0.23337273
101	0x3dda6657	0.10664051
102	0xbc0c8934	-0.008577634
103	0xbe4952d1	-0.19660498
104	0xbdf2b362	-0.11850621
105	0x3d67c233	0.056581687
106	0xbdaafab2	-0.083485976
107	0xbe9504a7	-0.29105112
108	0x3ce6ec8c	0.028188966
109	0x3d016c72	0.031597562
110	0xbcaae568	-0.020861343
111	0xbd19a109	-0.03750709
112	0x3d4902cf	0.049074944
113	0x3e4acb0c	0.19804019
114	0x3e47f64d	0.1952755
115	0x3bf2ad8e	0.0074059432
116	0xbd9e7ac5	-0.0773826
117	0xba3234d6	-0.00067980343
118	0x3df64bea	0.12026198
119	0x3e19666b	0.14980476
120	0x3e811ecf	0.25218818
121	0xbdbe0181	-0.092776306
122	0x3e3354b2	0.17512777
123	0x3dc78085	0.0974131
124	0xbec20669	-0.37895516
125	0xbe6bf921	-0.23044254
126	0x3cb59bea	0.022169072
127	0xbe64357c	-0.22286028
128	0x3dacc570	0.08436096
129	0xbe04140a	-0.1289827
130	0xbe2f6d6f	-0.1713159
131	0x3e86aa91	0.26302007
132	0xbf1519c4	-0.5824244
133	0xbe25982b	-0.16171329
134	0xbe9534d7	-0.29141876
135	0xbf806113	-1.0029625
136	0xbb24f87a	-0.0025172518
137	0x3d225e23	0.039640557
138	0x3d93db04	0.07219508
139	0x3e3af2a9	0.1825663
140	0x3e176ed5	0.14788373
141	0x3d9278a7	0.07151919
142	0x3da676d2	0.08128132
143	0x3d70e72b	0.05881421
144	0x3d218b98	0.039439768
145	0xbe6a825f	-0.22901295
146	0x3dc337bd	0.095321156
147	0x3c1694cc	0.009190749
148	0xbccfa0c4	-0.025345214
149	0xbe4310fd	-0.1904945
150	0xbe6fb56b	-0.23409049
151	0xbc15d790	-0.009145632
152	0x3e8c4401	0.27395633
153	0x3db6cb11	0.089254506
154	0x3ebaeb51	0.36507657
155	0xbe8158e0	-0.2526312
156	0x3ccba7f1	0.024860354
157	0x3f219307	0.6311497
158	0xbe9d5e32	-0.30735928
159	0x3dbd7349	0.092505045
160	0x3dce97c8	0.10087544
161	0xbc9c0755	-0.019046465
162	0xbbfeced0	-0.007776119
163	0xbda779bb	-0.08177515
164	0xbea4c21c	-0.32179344
165	0x3cc00dce	0.023444083
166	0x3e80d598	0.2516296
167	0x3e5b818a	0.21436134
168	0xbe511a7e	-0.20420262
169	0xbca6e1bf	-0.020371316
170	0x3dd298f7	0.10283082
171	0x3e2e163a	0.17000666
172	0x3e6cd537	0.2312821
173	0x3e4c26e7	0.19936715
174	0xbdca5064	-0.098786145
175	0xbe273da2	-0.16332105
176	0x3c23434e	0.009964777
177	0xbc65ef7a	-0.014034146
178	0x3e840ab8	0.25789428
179	0xbe532275	-0.20618613
180	0xbdea5c6f	-0.114434116
181	0xbd3a7fee	-0.04553216
182	0x3e9c29a2	0.30500513
183	0x3b6a08ff	0.0035710928
184	0x3cff61a3	0.031174487
185	0x3e0077bb	0.12545674
186	0xbd69714e	-0.05699282
187	0xbd2945d6	-0.041326366
188	0xbddf61ed	-0.1090735
189	0x3e294832	0.16531447
190	0x3ea9f285	0.3319284
191	0xbdc526ee	-0.09626566
192	0xbec1b93f	-0.37836644
193	0xbeb38ee6	-0.3506996
194	0xbf57e652	-0.84335816
195	0xbda626b8	-0.08112854
196	0xbdccb69c	-0.099957675
197	0x3d8e167d	0.06937883
198	0xbd6a1242	-0.05714632
199	0xbcecbe65	-0.028899381
200	0xbcbc34bd	-0.022974366
201	0x3e0dca27	0.13846646
202	0xbd992b1d	-0.07478926
203	0xbda55b58	-0.08074063
204	0xbd94bf24	-0.0726302
205	0x3dec12fe	0.1152706
206	0x3d592a08	0.0530186
207	0xbce1bc63	-0.02755565
208	0x3e12e709	0.14345945
209	0x3e4224ba	0.18959323
210	0x3d22a755	0.03971036
211	0xbc83e846	-0.016101968
212	0x3c34b1ab	0.0110286875
213	0xbdc87a98	-0.09789008
214	0xbed6f7d4	-0.41985953
215	0xbd15e39b	-0.036594015
216	0xbdbc575e	-0.091963515
217	0x3ca6098f	0.02026823
218	0x3e00904e	0.12555048
219	0x3c3cad22	0.011515887
220	0xbdccf220	-0.10007119
221	0x3dc2246e	0.09479605
222	0x3e813566	0.25236052
223	0xbd58dcd5	-0.052944977
224	0xbe3c8650	-0.18410611
225	0x3d950acd	0.07277451
226	0xbe747d2b	-0.23875873
227	0xbec0f820	-0.37689304
228	0x3b2f9fe4	0.0026798183
229	0x3ce4aa96	0.027913373
230	0x3e48af08	0.19598019
231	0x3cdcf1dd	0.026970798
232	0x3e1c7fbd	0.15283103
233	0x3e18e9d0	0.14932942
234	0x3d1e8189	0.038697753
235	0xbd2a451c	-0.041569814
236	0xbcddf772	-0.02709553
237	0x3d79183f	0.06081414
238	0xbdee915d	-0.116488196
239	0x3d2d62e0	0.042330623
240	0xbce6d625	-0.028178284
241	0xbea17fd6	-0.31542844
242	0xbdceb2c1	-0.10092688
243	0x3db98856	0.09059207
244	0x3e171e77	0.14757715
245	0xbceda5bd	-0.029009694
246	0x3ede6596	0.4343688
247	0x3da4fcd9	0.08056039
248	0x3d4a1740	0.04933858
249	0xbe049ff2	-0.1295164
250	0xbdcbafbb	-0.09945627
251	0x3c90f544	0.017695077
252	0x3e8f121d	0.27943507
253	0xbe304065	-0.17212065
254	0xbded5415	-0.11588303
255	0x3d5a6a4c	0.05332403

fc1.bias f4 [64]
0	0x3e12c733	0.14333801
1	0xbc0a5f28	-0.008445539
2	0xbdd28474	-0.1027917
3	0xbd7c346a	-0.061573423
4	0x3df2a7e1	0.118484266
5	0xbbce3c50	-0.006293811
6	0xbcef8d71	-0.02924225
7	0x3deb9a74	0.11504069
8	0xbd062509	-0.032750163
9	0xbe0bd0e3	-0.13653903
10	0x3e178247	0.1479579
11	0x3e5adb40	0.213727
12	0x3e0aa5e9	0.13539852
13	0x3ddf07b4	0.10890141
14	0xbd3541f8	-0.044252366
15	0xbd4d20d7	-0.050080147
16	0x3d6dda6b	0.058069628
17	0xbd4f3874	-0.050590947
18	0xbd7ea762	-0.062171347
19	0xbe14e1c3	-0.14539246
20	0xbdd68d75	-0.104761995
21	0xbd1532d7	-0.036425438
22	0x3d7a7716	0.061148725
23	0xbdb648b1	-0.089005835
24	0xbe1e6cb9	-0.15471162
25	0x3e260ec9	0.16216578
26	0xbc78c545	-0.0151837515
27	0xbe15eea5	-0.14641817
28	0x3e0563a7	0.13026296
29	0x3e47f561	0.19527198
30	0xbd717896	-0.05895289
31	0xbe1902d7	-0.1494249
32	0x3deb73f8	0.11496729
33	0x3d2966c2	0.041357763
34	0xbdeadf65	-0.114683904
35	0x3d62d1ba	0.055375792
36	0x3cddf876	0.027096014
37	0xbab20af9	-0.0013583592
38	0xbde3f734	-0.11131135
39	0xbd65ab43	-0.05607153
40	0xbd4f69ed	-0.050638128
41	0x3dcc5594	0.0997726
42	0xbc1f049b	-0.009705688
43	0x3e67a441	0.22621252
44	0x3c9ce7bf	0.019153474
45	0xbe484119	-0.19556083
46	0xbd77d719	-0.060507867
47	0xbd8ac70d	-0.06776247
48	0xbdcb1e09	-0.09917838
49	0xbc904d3f	-0.017614959
50	0xbe65b1ac	-0.22431058
51	0x3d8d2817	0.06892412
52	0x3c703eb3	0.014663386
53	0xbe11a313	-0.14222364
54	0xbe08bce2	-0.13353303
55	0xbca48468	-0.020082667
56	0x3dc9b348	0.09848648
57	0xbdb52974	-0.08845797
58	0xbe09bb64	-0.1345039
59	0xbdf98a9a	-0.12184639
60	0x3b59ca0b	0.0033232
61	0x3d5679e0	0.052362323
62	0xbc1a1b42	-0.009405913
63	0x3ddcdc25	0.10784177

fc2.weight f4 [64, 64]
0	0xbdc7e4c4	-0.097604305
1	0x3dc0fcca	0.09423216
2	0x3e223917	0.1584209
3	0x3e64e2f2	0.22352198
4	0x3e02956c	0.12752312
5	0xbd1b5ea1	-0.037932042
6	0x3e6ea229	0.23304047
7	0xbe9e20e9	-0.30884483
8	0xbdd29c8f	-0.102837674
9	0x3e8c8738	0.27446914
10	0x3d1710e5	0.036881346
11	0x3df529e1	0.119708784
12	0xbf0ba6c8	-0.54551363
13	0x3d89c351	0.06726707
14	0xbe8adea4	-0.27122986
15	0xbe5d546c	-0.21614236
16	0xbed20b74	-0.41024363
17	0xbe8a451b	-0.27005848
18	0xbe927ef5	-0.28612486
19	0x3d2fd323	0.042925965
20	0xbe980e96	-0.29698628
21	0x3dc33b62	0.09532811
22	0x3d5cabfd	0.05387496
23	0xbf0b8d44	-0.5451243
24	0x3dd79f69	0.10528452
25	0xbeb30927	-0.3496792
26	0x3e2511ac	0.16120023
27	0xbd275d31	-0.04086036
28	0x3d12d0c0	0.03584361
29	0xbc516c7c	-0.012782212
30	0x3e4d1be9	0.20030178
31	0xbda619d6	-0.081103966
32	0xbea44e00	-0.3209076
33	0x3e3a6bcb	0.18205182
34	0xbe695d7d	-0.22789569
35	0xbd7235a3	-0.059133183
36	0xbefaf199	-0.4901245
37	0x3dea341d	0.11435721
38	0x3d0b4ec0	0.03401065
39	0x3cd7f203	0.026360517
40	0xbeb357da	-0.35027963
41	0xbe6ae7fe	-0.2294006
42	0xbc9ce4d9	-0.019152092
43	0xbd6eb23c	-0.058275446
44	0xbe2fb178	-0.17157543
45	0xbeba0267	-0.36329958
46	0xbebb4fca	-0.36584312
47	0xbe21740a	-0.15766922
48	0xbf26c62c	-0.65146136
49	0xbe582bd4	-0.21110469
50	0xbd286d93	-0.041120123
51	0x3db6c11e	0.08923553
52	0xbf1ef044	-0.62085366
53	0x3d7a7b48	0.061152726
54	0xbf42b5ff	-0.76058954
55	0x3bf851a7	0.007578093
56	0xbf008ace	-0.502118
57	0x3def133f	0.11673593
58	0xbdc7bae3	-0.09752443
59	0x3de70b88	0.11281496
60	0x3d5a23c7	0.053256776
61	0x3e2143f1	0.15748574
62	0xbe05930f	-0.1304438
63	0xbe1e61c1	-0.15466978
64	0x3dbca704	0.09211543
65	0x3e138c38	0.14408958
66	0x3e45a009	0.1929933
67	0x3de224d5	0.110421814
68	0x3d59691d	0.05307876
69	0x3d9c9680	0.07645893
70	0xbe431b12	-0.19053295
71	0x3e78bfe7	0.24291955
72	0xbdf0345f	-0.11728739
73	0xbdb1fcf4	-0.08690825
74	0x3d761a1c	0.060083494
75	0x3e0e561a	0.13900033
76	0xbe08f51c	-0.13374752
77	0x3e48e181	0.19617273
78	0xbe927b15	-0.2860953
79	0xbe42e161	-0.19031288
80	0x3bb57916	0.005538116
81	0xbc0251ef	-0.007954105
82	0xbd38dcd3	-0.04513247
83	0xbe537d5c	-0.2065329
84	0x3cd3f1b7	0.025872095
85	0xbead0607	-0.3379366
86	0x3ce419b8	0.027844295
87	0xbda89f94	-0.08233562
88	0x39c7b2fc	0.00038089592
89	0xbd319783	-0.043357383
90	0x3d0791c7	0.03309801
91	0xbe9dd8d4	-0.3082949
92	0x3d81b9c2	0.063342586
93	0xbcdefcc3	-0.027220136
94	0xbc2cf88d	-0.010557306
95	0x3e8a1010	0.2696538
96	0x3c8cfaaf	0.017209379
97	0x3e73cdc8	0.23808968
98	0xbe02d18c	-0.12775248
99	0xbeab12ed	-0.33412877
100	0x3d70a731	0.058753196
101	0x3e6512f6	0.22370514
102	0x3e8e1380	0.27749252
103	0xbe03ff0e	-0.12890264
104	0x3bca1b08	0.006167773
105	0x3db4d47e	0.08829592
106	0x3d977aaf	0.07396447
107	0x3d2f7291	0.04283387
108	0xbce2fa14	-0.027707137
109	0xbc3d876b	-0.011567931
110	0xbcb2ddb9	-0.021834241
111	0x3e8e1484	0.27750027
112	0xbde20bfd	-0.11037443
113	0xbc43de1c	-0.0119548105
114	0x3cbeaa96	0.023274701
115	0x3e3aeb19	0.18253745
116	0x3c800128	0.015625551
117	0x3e591573	0.21199588
118	0xbdc9d1ea	-0.09854491
119	0x3e2322cf	0.15931247
120	0xbdacce6b	-0.084378086
121	0xbe794a33	-0.24344711
122	0x3daae436	0.08344309
123	0x3c6d20ca	0.01447315
124	0xbe78286b	-0.24234168
125	0xbc14cffc	-0.00908279
126	0xbdd919c4	-0.106006175
127	0xbd044c2b	-0.032299202
128	0xbe6107a3	-0.2197557
129	0xbe1a7625	-0.15084131
130	0x3e192cbf	0.14958476
131	0x3e0f0218	0.13965642
132	0xbddc4dd0	-0.10757029
133	0x3cc08a28	0.023503378
134	0xbdb83379	-0.08994193
135	0x3cd16a41	0.025563361
136	0x3dec2d96	0.11532132
137	0xbd74908a	-0.059708156
138	0x3d127e0f	0.03576475
139	0x3e09d3be	0.1345968
140	0x3d979289	0.07400996
141	0x3d4cada4	0.049970284
142	0xbd66b1b1	-0.056321803
143	0xba78f499	-0.0009496897
144	0xbd09a6bf	-0.033606287
145	0x3dec7248	0.11545235
146	0x3dbe0762	0.09278752
147	0xbcab72dc	-0.020928793
148	0xbcc54c31	-0.024084182
149	0x3e07888c	0.13235682
150	0x3d7530c6	0.059860967
151	0xbd7bd979	-0.061486695
152	0xbd448954	-0.04798253
153	0x3e0fe626	0.14052638
154	0x3e6d2dc5	0.23161991
155	0x3dda5243	0.106602214
156	0xbdbad1f3	-0.09122076
157	0x3e34961e	0.1763539
158	0x3dce14d3	0.10062566
159	0x3c6a7e5c	0.014312353
160	0xbe53c8e9	-0.2068211
161	0x3cafb378	0.021447882
162	0xbe067f91	-0.131346
163	0x3de5d8d6	0.11222999
164	0x3d9a9c4a	0.07549341
165	0x3d0ea259	0.034822796
166	0x3e4a1084	0.19732863
167	0x3db4fdce	0.08837472
168	0x3e8c41ea	0.27394038
169	0x3e3b275c	0.18276733
170	0xbe9748c1	-0.29547694
171	0xbdd4d384	-0.10391906
172	0xbde06a87	-0.109578185
173	0xbd0d9211	-0.034563128
174	0xbd94f5e4	-0.072734624
175	0xbe31a889	-0.17349447
176	0x3cbd6d90	0.023123533
177	0xbeac9ec5	-0.33714882
178	0xbe540228	-0.20703948
179	0x3dc503ca	0.09619863
180	0xbde2318c	-0.110446066
181	0x3e4a9e0d	0.19786854
182	0xbe6e1c10	-0.23252892
183	0xbdaf710b	-0.08566483
184	0xbde1bff7	-0.110229425
185	0xbe50c513	-0.20387678
186	0x3e057b7f	0.13035391
187	0x3e0b689f	0.13614129
188	0xbd327950	-0.043572724
189	0xbb08ee24	-0.0020893896
190	0x3db5a793	0.08869853
191	0xbe5122f6	-0.20423493
192	0xbe996d9b	-0.29966435
193	0xbdbab3bc	-0.09116313
194	0xbd4ba490	-0.049717486
195	0x3e03ea93	0.12882452
196	0xbda03789	-0.078230925
197	0xbdbe8b3a	-0.09303899
198	0x3cad553f	0.021158813
199	0xbdb1e447	-0.086861186
200	0xbe4bfcb0	-0.19920611
201	0x3e1073a0	0.14106607
202	0xbd74e3d4	-0.059787586
203	0x3e2f2ce1	0.17106964
204	0xbe43a233	-0.19104843
205	0xbe047a96	-0.12937388
206	0xbce697fe	-0.028148647
207	0xbec7de56	-0.39036816
208	0x3d884c74	0.06655207
209	0xbe110368	-0.14161456
210	0xbc42af03	-0.011882546
211	0x3e134c19	0.14384498
212	0xbde5ee26	-0.11227064
213	0x3e8b64ac	0.27225244
214	0xbc66caa4	-0.014086399
215	0x3d32c1af	0.043641742
216	0x3df4a242	0.11945011
217	0xbd8bae53	-0.06820359
218	0x3e10a14e	0.14124033
219	0x3ea0491f	0.31305787
220	0x3db766a5	0.08955125
221	0xbea3efab	-0.3201879
222	0x3d72f35d	0.05931412
223	0xbdf430e5	-0.119233884
224	0xbda3e08b	-0.080018125
225	0xbe0638fe	-0.13107678
226	0xbe7ce6c5	-0.24697407
227	0xbe2555bf	-0.16145991
228	0xbead5a59	-0.33857992
229	0x3e3cca4f	0.1843655
230	0x3d673eb7	0.056456294
231	0x3ca2c181	0.01986766
232	0xbda40086	-0.08007912
233	0xbe92a85f	-0.28644082
234	0x3a850751	0.0010149275
235	0xbd1c37fa	-0.03813932
236	0xbdb4c884	-0.08827308
237	0xbe5d13eb	-0.2158963
238	0x3ceeb5f2	0.029139493
239	0xbde4b76d	-0.11167798
240	0xbe4e833b	-0.20167248
241	0x3d0ae4be	0.03390955
242	0xbe147540	-0.14497852
243	0xbd527b10	-0.051386893
244	0xbdbb4cc5	-0.09145502
245	0x3e882b66	0.2659561
246	0xbeabc8c1	-0.335516
247	0x3d06e4bb	0.032932978
248	0xbe9db677	-0.30803272
249	0xbbde333c	-0.00678101
250	0xbe519727	-0.20467816
251	0x3e10501e	0.14093062
252	0xbe7a9f6c	-0.24474877
253	0x3e1f56fb	0.15560524
254	0xbdd59b0d	-0.10429964
255	0xbd8b3bdc	-0.06798527

fc2.bias f4 [64]
0	0x3d255623	0.04036535
1	0xbbe175a6	-0.00688048
2	0x3d44a1c8	0.04800585
3	0x3d26a0a8	0.040680557
4	0x3e09c463	0.13453822
5	0xbe17a823	-0.14810233
6	0xbe035f55	-0.12829335
7	0x3dea48b1	0.11439646
8	0x3e8a4bb7	0.2701089
9	0x3e3f2b6c	0.18668908
10	0x3cfba274	0.030717112
11	0x3e30a5c7	0.17250739
12	0x3d7732ac	0.06035106
13	0xbd811768	-0.063032925
14	0xbdcfd24b	-0.10147532
15	0x3d15238b	0.03641085
16	0x3d82bbf1	0.06383503
17	0xbc1f3614	-0.009717483
18	0xbd0f9312	-0.035052367
19	0x3eada566	0.33915251
20	0x3db7c9df	0.08974051
21	0x3e89a600	0.2688446
22	0xbe2c9d51	-0.16856886
23	0xbdb68d17	-0.089136295
24	0xbd0ed0ae	-0.03486698
25	0xbe05d988	-0.13071263
26	0x3e1c7a00	0.15280914
27	0xbdf4acac	-0.11946997
28	0xbcf0f455	-0.029413382
29	0x3e83da18	0.2575233
30	0x3d980aae	0.07423912
31	0xbe013af8	-0.12620151
32	0xbd348aee	-0.044077806
33	0x3e0fb189	0.14032568
34	0x3e518ce1	0.20463897
35	0xbdbbf061	-0.09176708
36	0xbe50cc5b	-0.20390455
37	0xbe24de1c	-0.16100353
38	0x3d4a7ab6	0.049433433
39	0xbdf9a8b6	-0.12190382
40	0xbdaf540d	-0.08560953
41	0x3edb667f	0.42851636
42	0x3e08e404	0.13368231
43	0xbda33c5e	-0.079704985
44	0x3d07d8a3	0.033165585
45	0xbe2905e8	-0.1650616
46	0x3cc88785	0.024478683
47	0xbe21ff11	-0.15819956
48	0x3d3666ce	0.044531636
49	0xbdc8bf19	-0.09802074
50	0xbe134254	-0.14380771
51	0x3e2be37f	0.16786002
52	0xbe3b633e	-0.18299577
53	0xbc930f9d	-0.01795178
54	0x3d8d3c50	0.06896269
55	0xbe274c02	-0.16337588
56	0xbd389010	-0.045059264
57	0xbdeaed2b	-0.114710175
58	0x3d1e8f15	0.038710672
59	0xbd51b917	-0.051201906
60	0xbd268024	-0.04064955
61	0x3dd54595	0.10413662
62	0x3dd8ddcb	0.10589179
63	0xbdd1d1ca	-0.10245092

fc3.weight f4 [4, 64]
0	0xbea3cb14	-0.31990874
1	0x3d4e4528	0.05035892
2	0x3d84cd72	0.06484498
3	0xbe89e2f5	-0.26930967
4	0x3e354414	0.17701751
5	0xbe336e31	-0.17522503
6	0xbe37d410	-0.17951989
7	0x3dc7971f	0.09745621
8	0x3dfa10fd	0.122102715
9	0xbd96cd7d	-0.073634125
10	0x3d03a42d	0.032138992
11	0x3ebe6e21	0.37193397
12	0xbe8296e5	-0.25505748
13	0xbd8bdc4c	-0.06829128
14	0xbcca434e	-0.024690297
15	0x3d9bb884	0.07603553
16	0xbee593e3	-0.4483939
17	0x3d16e8a9	0.036842976
18	0x3c6150bf	0.0137521615
19	0x3e3572cb	0.17719571
20	0x3d06ff6e	0.03295844
21	0x3eaefcfe	0.34177393
22	0xbccc0b90	-0.024907857
23	0xbd9c8232	-0.0764202
24	0x3d4cdba0	0.05001414
25	0xbe260b9a	-0.16215363
26	0x3dc77956	0.0973994
27	0xbdf44239	-0.119266935
28	0x3d944866	0.072403714
29	0x3d2fb084	0.042892948
30	0xbef5d669	-0.48015144
31	0x3e4f15a6	0.20223102
32	0x3e175aae	0.14780685
33	0x3dccd3e4	0.100013524
34	0x3d9a8e2b	0.07546648
35	0x3ec67724	0.38762772
36	0xbbcf4050	-0.0063248053
37	0xbd7d6002	-0.06185914
38	0x3dc8dce7	0.09807759
39	0xbcded7a4	-0.027202435
40	0x3ea3fed3	0.32030353
41	0x3dc35c6d	0.09539113
42	0x3deedd76	0.11663334
43	0x3c73ae06	0.014873033
44	0x3f025ef7	0.50926155
45	0xba50db8b	-0.0007967285
46	0x3e0b898c	0.13626689
47	0x3dccd087	0.10000711
48	0x3d6cffd5	0.057861168
49	0x3df032e2	0.11728455
50	0x3e0e295f	0.1388297
51	0x3e8044a3	0.25052366
52	0x3e81cd8d	0.25352135
53	0xbebf026f	-0.37306544
54	0x3d43b3b6	0.047778808
55	0x3cbd0249	0.023072379
56	0xbe2eef24	-0.17083412
57	0x3e0d3377	0.13789164
58	0x3e9460d3	0.2898012
59	0x3d2d18bd	0.04225992
60	0xbf059d5f	-0.52193254
61	0x3e1f3e61	0.1555114
62	0x3e1395b3	0.14412574
63	0x3e827d1c	0.25486076
64	0x3f199cde	0.60004985
65	0xbe58f302	-0.2118645
66	0x3e2891b1	0.16461827
67	0x3e709dc3	0.23497681
68	0x3e61ba72	0.2204378
69	0x3e4a69a2	0.19766858
70	0xbe9290d2	-0.28626114
71	0x3d113395	0.035449583
72	0x3d72da65	0.05929031
73	0x3e0ba661	0.13637687
74	0x3d7ca157	0.061677303
75	0x3e8f3530	0.27970266
76	0xbeb38bc1	-0.3506756
77	0xbc84c54a	-0.016207356
78	0x3bf2eb49	0.007413302
79	0x3e6db139	0.23212136
80	0x3cccb6e9	0.024989562
81	0x3e6279e7	0.22116815
82	0xbedfedde	-0.43736166
83	0x3dfed2e7	0.1244257
84	0x3d8df951	0.06932319
85	0x3e561dde	0.20909831
86	0xbdee3222	-0.11630656
87	0x3dd80ca0	0.10549283
88	0xbdaabc12	-0.08336653
89	0xbd41bff5	-0.047302205
90	0x3e16b68e	0.14718077
91	0x3dd8162a	0.105511025
92	0xbe39f0fd	-0.18158336
93	0x3e0e20fd	0.13879772
94	0x3e01cdb6	0.12676129
95	0x3dbaf9c8	0.09129673
96	0x3e4d93cd	0.20075913
97	0xbd0f6452	-0.035007782
98	0x3dfdefd4	0.12399259
99	0x3d3597d1	0.044334237
100	0x3d389c25	0.045070786
101	0xbdd19b2e	-0.10234676
102	0x3e813943	0.25239
103	0x3e180529	0.14845718
104	0x3f02e8f9	0.5113674
105	0x3e40cd43	0.18828301
106	0x3d9a3179	0.075289674
107	0x3de21f02	0.110410705
108	0xbdad2563	-0.084543966
109	0x3dd1eda0	0.102504015
110	0xbc593eef	-0.013259633
111	0xbdaf1ad6	-0.085500404
112	0x3f009cab	0.50239056
113	0xbccd98ba	-0.02509724
114	0x3d49f7c3	0.04930855
115	0x3e89957f	0.2687187
116	0x3e773593	0.2414153
117	0x3da1b54e	0.07895909
118	0x3e1afe88	0.15136158
119	0x3e780108	0.24219143
120	0xbe388bee	-0.18022129
121	0x3c647fd8	0.013946496
122	0x3ed7ed62	0.42173296
123	0xbe639c66	-0.2222763
124	0xbd9d756f	-0.07688414
125	0x3cf62fef	0.030052153
126	0x3cfa041c	0.030519538
127	0xbd96b893	-0.073594235
128	0xbe34e555	-0.17665608
129	0xbe825591	-0.25455907
130	0x3dc18af3	0.094503306
131	0xbe07dac1	-0.13267042
132	0x3e769c0a	0.24082962
133	0xbc9b07f7	-0.018924696
134	0x3de50165	0.111819066
135	0x3e0d84cc	0.13820189
136	0x3e02bbda	0.12766972
137	0x3e1e9d56	0.15489706
138	0xbe9180b3	-0.28418502
139	0x3dba6288	0.091008246
140	0xbea8815a	-0.32911187
141	0xbee35178	-0.44398093
142	0xbd985c66	-0.074394986
143	0x3e91a67b	0.28447327
144	0x3dfa8ba3	0.12233665
145	0x3deebfed	0.11657701
146	0xbe7b7b52	-0.24558762
147	0x3e207846	0.1567088
148	0x3c7214ff	0.014775514
149	0x3e51ea56	0.20499548
150	0xbe98cd1f	-0.29843995
151	0x3d3cfff8	0.04614255
152	0x3ebde2da	0.37087137
153	0x3d25a3ef	0.040439542
154	0x3d820eec	0.06350502
155	0xbe682466	-0.22670135
156	0x3e8d5f89	0.2761195
157	0x3e51b54a	0.20479313
158	0x3c1f40f7	0.009720079
159	0xbeb36861	-0.35040572
160	0xbe687c60	-0.22703695
161	0x3aad6909	0.0013230155
162	0x3e093fac	0.13403195
163	0x3eb4c3dc	0.3530568
164	0xbe809607	-0.25114462
165	0xbcf5522d	-0.029946411
166	0xbdc6cc85	-0.09706978
167	0x3d448903	0.047982227
168	0x3d71e2ea	0.059054293
169	0x3e432bd3	0.19059686
170	0x3e1af3e8	0.15132105
171	0x3cac6f12	0.021049056
172	0xbd91aa0e	-0.071125135
173	0xbddde4e2	-0.108346716
174	0x3da5d59b	0.08097383
175	0x3da0f4f6	0.078592226
176	0x3d72b227	0.05925193
177	0xbc4fcf4e	-0.012683703
178	0xbe915090	-0.28381777
179	0x3ee9530f	0.4557118
180	0xbda4433a	-0.08020635
181	0x3e5167ac	0.20449704
182	0x3e583929	0.21115555
183	0x3e8e7ee1	0.27831176
184	0xbe5770e6	-0.21039161
185	0x3e642b68	0.22282183
186	0x3deb6791	0.11494363
187	0xbe60f316	-0.2196773
188	0xbe01139e	-0.1260514
189	0x3e14ab76	0.14518532
190	0x3e060673	0.13088398
191	0x3eef1eec	0.4670328
192	0x3d84e786	0.06489472
193	0x3e979efd	0.29613486
194	0x3e04df1e	0.12975737
195	0x3e280d30	0.1641128
196	0x3d8dfc61	0.06932903
197	0xba96b880	-0.0011499077
198	0xbe56b0e7	-0.2096592
199	0x3e8375dd	0.2567586
200	0x3e262507	0.16225062
201	0x3deb6cd5	0.114953674
202	0x3e1de317	0.15418659
203	0xbcbf551e	-0.023356017
204	0x3d92c718	0.0716688
205	0x3e073fb7	0.13207899
206	0x3d72be00	0.05926323
207	0xbcc21ce5	-0.023695419
208	0x3e84b70e	0.2592091
209	0x3bdb0e4d	0.0066850544
210	0x3d9f1713	0.07768073
211	0x3e603e2d	0.21898718
212	0xbe01ead7	-0.1268724
213	0x3e923403	0.28555307
214	0xbda506de	-0.080579504
215	0x3db8f31c	0.090307444
216	0x3d546bb5	0.05186053
217	0xbee9aaa2	-0.45637995
218	0x3e24decb	0.16100614
219	0x3cccc3ab	0.024995646
220	0x3e71c26b	0.23609321
221	0xbaa79688	-0.0012785951
222	0xbe4b7325	-0.19868143
223	0xbc367f39	-0.011138731
224	0xbcc5a97f	-0.024128674
225	0x3dcc19a2	0.099658266
226	0xbd9bc8a2	-0.07606627
227	0x3d9397a1	0.07206655
228	0xbe30455b	-0.17213957
229	0xbe5da99b	-0.2164673
230	0x3dff3326	0.12460928
231	0x3cc461f8	0.023972496
232	0xbd94a20a	-0.07257469
233	0x3e464a84	0.19364363
234	0x3e7179b9	0.2358159
235	0xbe91d312	-0.28481346
236	0x3ee084ed	0.43851414
237	0xbe408cad	-0.18803664
238	0x3e3fb2ff	0.18720625
239	0xbbf1e680	-0.007382214
240	0xbc357133	-0.011074352
241	0xbe67d94e	-0.22641489
242	0x3e04e287	0.12977038
243	0x3c8b0275	0.016968945
244	0xbc0e67d0	-0.008691743
245	0xbbd83f60	-0.0065993518
246	0x3e23bcb7	0.15989958
247	0x3e28a4a1	0.16469051
248	0x3d9a694c	0.07539615
249	0xbdaf69a6	-0.08565073
250	0x3d5203d3	0.05127318
251	0xbe613374	-0.21992284
252	0xbe47add6	-0.19499907
253	0x3e8dae5b	0.27672085
254	0x3cc92bec	0.024557076
255	0xbb74b0c7	-0.0037336813

fc3.bias f4 [4]
0	0x3eaa2f40	0.33239174
1	0x3e8aaba6	0.27084082
2	0x3e223f85	0.15844543
3	0x3e22805a	0.15869275
